common/best_models/cnn_reg_1692139221.pt (torch, 750747 bytes, 18 tensors)

feature_extractor.0.weight f4 [32, 2, 5]
00000000: 1a9f c0bd 9d83 e83d 0291 08be 5965 a6be
00000010: 029e ae3d 71d8 4abe 449c 8b3e b990 d53d
00000020: 8390 3d3e cc14 173e b694 293f 8eb0 663e
00000030: ba58 eabb 9507 78be c519 823a a211 123f
00000040: 6cc7 28be 5e75 8f3d f409 993e 01d4 2bbe
00000050: c07c 0f3e e0ea b7bd 6e77 f83d 80d2 543c
00000060: 01f5 d3bd 822e 403e 96a3 2b3e 69e6 493c
00000070: eaf7 2cbd dd5b 47be fc68 1abe c990 bdbe
00000080: f243 bb3d 9f89 c3bd ae1e 5cbe 16fe 81be
00000090: 61dd 283d 4d8c a2be ee34 9abe 3737 bcbd
000000a0: 6b21 b33d ba32 b0be 867e 88be 4ecd 26bd
000000b0: c376 a9be 7fc9 0abe 85b0 d8bb f6cd a93c
000000c0: 56f1 94bd aa5c 393e 84d8 d1bd b83b b1be
000000d0: b137 5c3e 5b51 3cbe 4581 a43c 7670 97bc
000000e0: 49f2 0fbe c3f3 a1be eb4d afbe d83b f6bc
000000f0: f5a2 ae3b c88b 2a3e b56f 973e 6a5c 523e
00000100: ef52 b63e 26db c43d a2f1 f5bd 2888 ddbe
00000110: f03a 3d3e a885 5b3e 1d5c c13e 7674 0a3d
00000120: 4a62 f1bc 48bd 163f a910 6f3e 64f5 433d
00000130: b527 0c3e 6c5f 783e 3353 64bd b4f8 873e
00000140: 6aaa eabb 204e fcbd 776b ba3d e5fd 6fbe
00000150: 5909 9bbe 6433 84be ba82 27bd 92ed 5fbe
00000160: 9e47 93bd 3805 bd3d fcbe f5bd 474a 07be
00000170: 483b 8bbd 0518 693e c004 91be 038a fabd
00000180: 9521 98be b552 333c 7350 82be 4ec0 e53d
00000190: 290c 503d a21e 04be a77f 82be 9d5a 51be
000001a0: 3aa5 903b 1177 c73d e057 b93c 77e3 c93c
000001b0: 40b3 7ebd bc68 363d dc83 8a3e 69cd cf3e
000001c0: 0224 ef3e 6575 b5bd cc49 13bc f550 ef3e
000001d0: 9b15 c43d de70 2bbc 81b0 763e f96f 553e
000001e0: 5cd6 a4bd d556 8b3e 0371 82be 3a4e ba3d
000001f0: 3002 4fbd 6fe2 133e b653 7abe 3768 e1bd
00000200: adc6 843d 0831 383e 4159 64bd 13bf 673e
00000210: 120c 733e 38bf 9ebd 6876 013e df73 0bbe
00000220: da6e cf3d a908 d73b d867 30be cb7a d33d
00000230: c28c 333d 4437 47bd 3369 9dbe 3f8b dcbd
00000240: 876b 80be c0ca 743e 972d 823e 9947 30be
00000250: 7a4b 05be 3699 d8bd f750 85be 70e1 54bd
00000260: 2dd6 2ebd f1f7 3abe 0963 ed3e 1cf6 9bbe
00000270: 239b 0cbd 95d6 573d de80 523e 6dd8 62be
00000280: 541c 94bd ce07 a9bd ff2c f8bd d684 563d
00000290: 6ae9 82be 12f7 cbbd ff62 743e 73f2 363e
000002a0: 6a37 903e efcc 80bd 8f73 87bc a160 f63d
000002b0: 55d0 013e fabd 00bd e5ec 953d 9c72 da3b
000002c0: 6a48 10bc 7211 1fbe b82b 3e3e 0deb 8ebe
000002d0: dc24 2e3d 3361 58be 5bc9 263f 2bda f93e
000002e0: 71e6 a43e 9fff 5c3d 91dc 8ebd 9ffc 3ebd
000002f0: 7b37 c03d 940b ac3e 9228 83be c581 063e
00000300: 4318 fc3e 2f33 113f 335d 123e bc61 5f3e
00000310: f42d 363c 4cc4 073e 458b 9f3d fc73 eb3e
00000320: 9346 96be 25ea adbe e448 283e ecdf 7ebc
00000330: 38e1 5a3d 8572 59be 12f3 b73d eb03 afbe
00000340: 939d 86be 50f1 98bd 94ce 683c 58c8 633e
00000350: d33c c13e a5c1 f23e c74f c23e 5e1f 06bd
00000360: 11ab 22be d2d7 f4be 6d78 90be 4180 8b3e
00000370: 8691 4cbe aaaf f23c 84d5 9b3d e8bc d6bd
00000380: a80f 9fbd 2cb1 81be 69c1 d13d cb8b dc3d
00000390: 7d76 b5be 48f6 b73d 9c6c 00be da62 bf3c
000003a0: b132 db3d 3355 be3e 9346 0d3f e9cc 373e
000003b0: 6da1 db3b 3477 28be c451 45bd 1654 883e
000003c0: deff 103d a295 4fbe d49e 2f3f 4c98 183f
000003d0: 02b4 de3d 35bb dd3c 6792 1c3d 60d1 95be
000003e0: e939 7e3e 9598 203d 151c 973d 599d 4c3e
000003f0: 1bdc 843e 556e 213f 52d0 323f d60c e33b
-0.09405346 0.11353228 -0.13336566 -0.32499197 0.08526231 -0.19809128 0.2726766 0.10427994
0.18512158 0.14754027 0.6624254 0.22528288 -0.0071516903 -0.24221642 0.0009925893 0.57058156
-0.16482323 0.07004808 0.29890406 -0.16780092 0.14012432 -0.08980346 0.121321544 0.01298964
-0.10349465 0.18767741 0.16761622 0.0123230005 -0.042228617 -0.19468637 -0.15079111 -0.37024525
0.09143819 -0.095477335 -0.21496078 -0.25389165 0.04122675 -0.31747666 -0.30118507 -0.09190219
0.08746608 -0.344137 -0.2665903 -0.040723138 -0.3309842 -0.13553427 -0.0066128396 0.020728093
-0.07272594 0.18101755 -0.10246375 -0.34615874 0.2150562 -0.1839041 0.020081172 -0.018486243
-0.14057268 -0.31631288 -0.34239134 -0.030057833 0.0053294846 0.16654885 0.29577413 0.20543066
0.35610148 0.09612112 -0.120089784 -0.4326794 0.18479514 0.21437705 0.3776559 0.033802472
-0.029465813 0.5888257 0.23346199 0.047841445 0.13687022 0.2425515 -0.055743407 0.26556933
-0.007161428 -0.12319589 0.091025285 -0.23436697 -0.3028057 -0.25820458 -0.040896155 -0.2186797
-0.07191394 0.09229511 -0.11999318 -0.13211928 -0.067984164 0.22763069 -0.28323936 -0.12233355
-0.2971312 0.010945012 -0.25452003 0.1121832 0.050792847 -0.1290231 -0.25488016 -0.20444722
0.004414228 0.09739507 0.02262491 0.024644597 -0.062182665 0.044533476 0.27053726 0.40586403
0.4670716 -0.08860282 -0.0089897625 0.46741453 0.095744334 -0.010463921 0.24090768 0.20843495
-0.08048698 0.27214685 -0.25476846 0.09096952 -0.050539196 0.14441846 -0.24445996 -0.110062055
0.06483207 0.17987454 -0.05574918 0.22631483 0.23735073 -0.07751316 0.12642825 -0.1361842
0.10128565 0.0065623117 -0.17227113 0.10326155 0.04383541 -0.04863669 -0.30744323 -0.107687466
-0.25082037 0.23905468 0.25425407 -0.17214812 -0.13017073 -0.10576098 -0.26038334 -0.051972806
-0.042684723 -0.18258645 0.4636462 -0.30461204 -0.034327637 0.052694876 0.20556971 -0.22152872
-0.07231966 -0.08253442 -0.12117957 0.052372776 -0.25568706 -0.09959234 0.23865889 0.17865925
0.28167278 -0.06289088 -0.016534595 0.12030149 0.12677129 -0.031431176 0.07320575 0.0066664945
-0.008806327 -0.15533999 0.18571365 -0.27913705 0.04251562 -0.21130829 0.65150994 0.4879926
0.32207063 0.053954717 -0.069756635 -0.046627637 0.09385582 0.33602583 -0.2561689 0.1313544
0.4923726 0.56718725 0.14293365 0.21814626 0.0111193545 0.13258475 0.077902354 0.45986927
-0.2935072 -0.339677 0.16434056 -0.015556317 0.05343744 -0.21235092 0.08981909 -0.34182677
-0.26292095 -0.07467902 0.014209408 0.22244394 0.37741718 0.47413364 0.3795149 -0.032744758
-0.15885569 -0.47820908 -0.28216878 0.27246287 -0.19977388 0.029624779 0.07609084 -0.1048525
-0.07766658 -0.25330484 0.10241968 0.10768851 -0.35441962 0.08982521 -0.12541431 0.023362566
0.10703028 0.37174377 0.5518581 0.17949261 0.006702593 -0.16451722 -0.04817368 0.26626652
0.035400264 -0.20271924 0.6860173 0.59607387 0.108741775 0.027066806 0.038225558 -0.29261303
0.24826778 0.039208014 0.07378403 0.19981898 0.25949177 0.6305898 0.6984912 0.0069290204

feature_extractor.0.bias f4 [32]
00000000: b1ef cbbd cb4f 08bf e01c 68be e5d3 d23d
00000010: 8343 fd3d a5e6 833d 9d41 d2be 7c89 4dbf
00000020: ea0c b73d 9ae5 2bbd af7a b0bc b262 60bf
00000030: 1521 4ebe 512e aabd 2478 6abe d332 8ebd
00000040: edf1 57be cfce 32be 67a3 3fbf dfca 5abf
00000050: 9e1f 8b3d e59a d6be 7fae 1f3d 143d f3be
00000060: 67ab 14bf d5d2 3abf aa38 bcbe 3487 19bf
00000070: 1095 153e 4df6 b73d 96c6 2cbd bb2e 00bf
-0.09957827 -0.53246754 -0.22667265 0.10294322 0.123663925 0.06440476 -0.41065684 -0.8028791
0.0893801 -0.041967012 -0.021542875 -0.876506 -0.20129807 -0.083096154 -0.22897393 -0.06943288
-0.21088381 -0.17461704 -0.7485871 -0.85465807 0.0679314 -0.4191505 0.03898477 -0.47507536
-0.5807404 -0.72977954 -0.3676198 -0.5997193 0.14607644 0.08982525 -0.042181574 -0.50071305

feature_extractor.4.weight f4 [64, 32, 5]
00000000: 07f7 37bc 21c2 96bd 3929 8ebd 9eeb bc3b
00000010: 88d3 5f3d e1b9 18bc e48d 49bd a8d6 7bbd
00000020: bed2 583d 5eab edbb 0f60 3e3d ec72 1b3c
00000030: f413 563d 269c 973c bf95 9d3d 3ee0 393d
00000040: 2184 c43c a49a d23a 861d 0c3d 0864 b9bc
00000050: e23a 783d f4e6 813d 63a4 223d 14c2 5cbc
00000060: 4339 c6bc 20ce 853d 96a8 553d 2742 01bd
00000070: e560 2f3c 654c ad3c 05d6 8e3d 7e7c 963c
00000080: d012 b0bc fcb4 633c c964 413d 67ba 80bc
00000090: 7aa0 543c fcc2 8ebd 72af 4e3a d085 83bd
000000a0: 93e4 a5bc 40aa 23bd 763c d5bc 0cb2 a4bd
000000b0: 9829 8c3d 94f3 a13a d674 113d b3b5 92bd
000000c0: f8bd 80bd 7653 8fbc 4349 203d 8389 67bd
000000d0: f44a 7ebd b941 d23c 24bd 9d3d 47b4 793c
000000e0: 2e95 a5bd 8393 873d 7cd4 cd3c 9db9 183b
000000f0: 9d05 41bd 5fde 03bd 5723 bcbc 6a69 afbc
00000100: 2d7d 21bd 6427 82bd 5d3d 503d 4b4b 91bd
00000110: 1344 743d 81fb c83c 4df5 6ebc b9de 403c
00000120: 5366 ae3c d422 88b9 8380 91bd 3cc9 01bd
00000130: e7d7 33bd 9aa4 91bb 23ff 6dbd afdf 90bd
00000140: e889 57bc 38a5 8cbd 211c bfbc fdb8 a0bb
00000150: b2a3 133d 2810 493b 115b ca3b 8431 54bd
00000160: cec9 05bd f797 0ebd 90c6 aebb e59b fa3b
00000170: 8921 093d 2133 8d3d e7de fbbc d64e 79bd
00000180: b80c 66bd 41de cdbc 8abe b03b 9d4c 4d3b
00000190: e1f0 87bd 1d9d 553d 6eb0 943d 1815 3c3d
000001a0: 88a4 27bd e63f 123c d4be 7ebd 56f6 4a3d
000001b0: 1e3f a8bd 8df6 633d 4bb9 67bc 8dec 8b3d
000001c0: 483f eabc 9cc0 9b3d 0281 9fba d3a8 e6bb
000001d0: edfc cf3b 3ced 3abc 10a5 8ebb 75e0 a5bd
000001e0: ba92 edbc 00eb 5c3d 31f7 7a3d b24f 213d
000001f0: 0076 b83c 5d8b 7ebd 8b17 3fbc d4dc 87bd
00000200: 0457 34bd 6dac 813d 6f7f 9abd cd6a 953c
00000210: 5ccd aebc 9389 c1bc 98ce 89bb f084 06bb
00000220: 5b15 0bbd 6bf3 ea3c 61d9 a73a 2e30 76bd
00000230: b0ec 49bd 3154 04bc c694 98bc 1aaf 3a3c
00000240: 2745 81bd fd5d 203d c7b6 1bbd 013c a0bd
00000250: c800 98bd 7474 9dbd 3247 453d 2ed0 983c
00000260: 87e0 063d 1376 163c 5155 7fbb ac20 18bd
00000270: 61cc acbc 3afc 7c3c 38dd 70bd c224 66bd
00000280: a9a6 0e3d 1036 893c 1325 033c 6e32 183c
00000290: 52dd b83b 9670 7fbd 2146 aa3d 169a 8f3d
000002a0: 4606 b03d 2ae5 003e 3649 24bd 6cee 0e3c
000002b0: 8439 903d be5b 0e3c 5681 3dbd 8469 123c
000002c0: 03cf 053c acae f23b dbe1 9f3b c6bc acbd
000002d0: de19 903b d6ee 553c a708 553c 2567 8d3c
000002e0: 7ce3 efbc 34a5 ac3b 817b d93b 3b03 bd3b
000002f0: a341 12bc 4edb 91bd 0772 41bc ea2c 7ebc
00000300: 1ada 033d 4d30 213d 3cc2 b23d 4bf6 f33c
00000310: 0384 af3d 25ab b33d 7ee9 d13c 8f5a b43d
00000320: 8be8 fe3b 0313 573c 4651 29ba affc 543b
00000330: 84f1 90bd 336a 74bd 8e99 3abd f9f9 91bd
00000340: 8c97 7bbd 21b2 86bc 4d0b 9d3b 84c2 cdbc
00000350: ad58 dcbc 0a29 13bd 591f 4dbd f1a3 65bb
00000360: b080 633c 50c2 873c 6b0c 5b3c 3208 153e
00000370: f67c eabb ae6c 90bd 93e8 5ebd 8293 623d
00000380: 567c 263c 1fc9 12bb 9a51 a1bb f00e 0bbb
00000390: 37bd 51bc 8cc1 a43c c5a4 713d df59 49bc
000003a0: 36b5 1fbd 3596 65bd 1477 9ebd 7702 ac3c
000003b0: 4090 a83d 91be 0339 8498 02bd b31f d43c
000003c0: 6126 9f3c 483a 31bd dcd4 79bc 2d06 4cbd
000003d0: bf79 00bd ea46 593d 615c a13d 67b2 ef3c
000003e0: c5f6 eabb 9c75 aa3c dcb3 793d 92a8 053d
000003f0: 4dac be3d c7bf cc3d c209 ef3d 3c44 873d
-0.0112283295 -0.07361246 -0.06941456 0.0057653924 0.05464509 -0.009321661 -0.049207583 -0.06148401
0.052935354 -0.0072530946 0.046478327 0.009487849 0.052265123 0.018507075 0.076945774 0.04537987
0.023988785 0.0016067815 0.034207843 -0.022630706 0.06060303 0.06342879 0.039707553 -0.013474006
-0.024197226 0.06533456 0.05216273 -0.03155723 0.010704254 0.021154592 0.06974415 0.01836991
-0.021493345 0.0138981305 0.047215257 -0.015713884 0.012977714 -0.06970784 0.000788442 -0.06422007
-0.020250594 -0.039957285 -0.026029807 -0.08041772 0.06843871 0.0012355917 0.035511814 -0.071635626
-0.06286234 -0.017495852 0.039132368 -0.056527626 -0.0620832 0.025666105 0.07702091 0.015240735
-0.080850944 0.066199325 0.025125735 0.0023303994 -0.047124494 -0.03219449 -0.02296607 -0.02141257
-0.039426018 -0.063551694 0.05083977 -0.07094439 0.059635233 0.024533989 -0.014584851 0.011771851
0.021289026 -0.0002596589 -0.0710459 -0.031686053 -0.043907072 -0.004444671 -0.058104645 -0.07073914
-0.013155438 -0.068674505 -0.023328843 -0.004904865 0.036044784 0.0030679796 0.0061754067 -0.051805034
-0.03266316 -0.034812894 -0.005333729 0.0076479786 0.033479247 0.06894518 -0.030745937 -0.0608662
-0.056164473 -0.025130393 0.005393808 0.0031326183 -0.06637741 0.052151788 0.07260214 0.045918554
-0.040928394 0.008926367 -0.062193707 0.04955133 -0.08215164 0.05565505 -0.014143298 0.06832228
-0.028594628 0.07605097 -0.0012169185 -0.0070391684 0.00634729 -0.0114091 -0.004353173 -0.080994524
-0.029000629 0.05393505 0.061270896 0.039382644 0.022517204 -0.062144626 -0.011663328 -0.066339165
-0.044028297 0.06331716 -0.07543837 0.018239403 -0.021338157 -0.02362517 -0.004205536 -0.0020526014
-0.033955913 0.028680524 0.0012805873 -0.06010454 -0.04929799 -0.008076713 -0.018625628 0.0113942865
-0.06312018 0.039152134 -0.038016107 -0.07823945 -0.07422024 -0.07688227 0.0481636 0.018653955
0.03292897 0.0091834245 -0.0038960765 -0.037140533 -0.02109355 0.015440995 -0.05880472 -0.0561874
0.03482691 0.016749412 0.008004445 0.009289367 0.005641618 -0.06236323 0.08314157 0.070118114
0.085949466 0.12587419 -0.040108882 0.008723836 0.0704222 0.008688865 -0.046265922 0.00893629
0.008167031 0.0074060764 0.004879219 -0.08434443 0.004397615 0.013057431 0.013002551 0.017261097
-0.029283278 0.005268717 0.0066370373 0.0057682074 -0.008926782 -0.07121907 -0.011806971 -0.015513638
0.03219042 0.039352704 0.087284535 0.029780528 0.08570101 0.087728776 0.025624033 0.08806335
0.007779186 0.013127091 -0.0006458949 0.0032499244 -0.070773154 -0.059671592 -0.045556597 -0.071277566
-0.061423823 -0.01644236 0.004792607 -0.025117166 -0.026897753 -0.03592781 -0.050078724 -0.0035040344
0.013885662 0.016572148 0.01336966 0.14553908 -0.00715601 -0.07051979 -0.05442102 0.055316456
0.01016148 -0.002239771 -0.0049230577 -0.002121862 -0.01280146 0.020111822 0.058995027 -0.012289493
-0.038991176 -0.05605145 -0.07737556 0.02099727 0.082306385 0.00012564125 -0.03188373 0.025894022
0.01942748 -0.043268472 -0.015248504 -0.049810577 -0.031366106 0.053046145 0.07878948 0.029259874
-0.0071705305 0.020808034 0.060962543 0.032631464 0.093102075 0.09997516 0.11671783 0.066048115

feature_extractor.4.bias f4 [64]
00000000: 5c8c 8ebd c974 0e3c 0ed0 473c 0cf9 503b
00000010: 4ccf 123c 0eb3 f23c e31e 08bd 7262 023c
00000020: ebdc 28bd 3aa0 e73c 77f7 a83b b454 73bd
00000030: 04f0 cf3c 8c31 35bb dbd5 ce3b ee44 b63b
00000040: 6399 a43c 85ba 9c3c 1a63 143c 2240 ec3b
00000050: 7f4f d23b af73 5ebc e0d2 3dbd 4526 e73c
00000060: 46b1 a03c 0ca8 4ebd 5d87 063d 4d5d ae3c
00000070: a71a 043d 1410 e63b ef2d c33c 8b56 053d
00000080: f6c0 d93b a35c eb3c 2dd7 eb3c 781a e63b
00000090: 9621 963b f968 a53c 6201 243c e6c0 ac3c
000000a0: 649a aabc 6a47 e83c cb50 db3b 9326 18bd
000000b0: 6db3 0c3c 4818 033d 555d 1f3c e44f ce3c
000000c0: 4154 e13c 9f77 27bd 4c6a 903b 2dfc 15bd
000000d0: 6cbf 9b3c c605 50bd 3b9e 033c 31fc d13c
000000e0: e04e 21bd 590c 0a3d 35bd 543c 04c2 0f3c
000000f0: c526 b53b 94ea aa3c 5d4d 233c 6e52 be3c
-0.06960365 0.008694836 0.0121956 0.0031886725 0.008960556 0.029626396 -0.03323258 0.0079580415
-0.04122631 0.028274644 0.0051564532 -0.05940695 0.025383003 -0.002764794 0.0063121147 0.0055624163
0.020092672 0.019131908 0.009056831 0.0072097937 0.006418168 -0.013577386 -0.046343684 0.02821649
0.01961578 -0.05045323 0.032843936 0.021284724 0.03225198 0.0070209596 0.023825614 0.032553237
0.006645317 0.028730696 0.028789127 0.0070221983 0.0045816405 0.020191656 0.010010095 0.021088075
-0.020825572 0.028354365 0.006692981 -0.037146162 0.0085877 0.03200558 0.009726842 0.02518458
0.027505996 -0.040885564 0.004407203 -0.036617447 0.019012176 -0.050786756 0.008033331 0.02563295
-0.03938186 0.033703182 0.012984564 0.008774284 0.0055283033 0.020863809 0.009967175 0.023232665

feature_extractor.8.weight f4 [128, 64, 2]
00000000: e250 813c 7812 ae3d f1e1 a9bb f684 e23d
00000010: f5e2 69bb b0b5 d13d 95d0 a53a 9ab4 f03d
00000020: 940e 4bba 87b5 a33d 7a05 17ba 1b46 8a3d
00000030: 99e1 b0bb 8e3f 78bd d2a4 67b9 4f77 9f3c
00000040: 7b12 b23d 3ac9 1ebd cffd 18bb 5567 ae3d
00000050: 5826 18bc de6f 6cbc b509 303c 6866 5b3d
00000060: 7e9e ee3a d0b8 0f3d 2b50 483c 9979 9b3c
00000070: 5c8d 98ba b171 34bc ffd5 1abc 12f4 f63b
00000080: 9ffd 1dbc b26d 823c 7965 e7ba 6c4d 813d
00000090: afe0 a2bb 22a5 e43d d73f e5bb 843a 72bc
000000a0: d262 30ba 90f9 783b 5e50 073d c362 10bc
000000b0: 2ff1 a8bd 1dcf 71bc 2491 133b ebc9 fd3d
000000c0: e10d 833b f6b8 ce3c 6532 8bbd 55c3 46bd
000000d0: a60e 9d39 8a9f 1e3e 7808 f13a cbb2 173e
000000e0: ecbd 943a 7556 263e 3624 55bb 72d2 e93d
000000f0: 1cf8 b438 2cda d03d 8c37 5fba 9019 413e
00000100: c804 beba a2d1 0b3e 38ed 033b 76cb c53d
00000110: c02e 7b3a bf04 433e ac39 aa39 0c4f 843d
00000120: df0d 1439 7d21 af3d 1d2a 9139 6248 ac3d
00000130: 2109 b2bb dc33 993d 03a8 233a e24c 123e
00000140: d03f 9c3d fb9d 0bbd c3cb 1e3b f957 083e
00000150: add5 8fbb 9142 283d 5115 a1bd a92f 593b
00000160: 4ec7 60ba ad55 df3d 7038 c13a 3e59 253e
00000170: f72c b1bb 3f36 b43b 6801 173b 13fb b73d
00000180: 4417 0d3b 1d78 623d 2425 3c3d ba58 3fbb
00000190: 4301 2ab8 12ec 283c 885b babc fbb3 803d
000001a0: 2233 39bb d6a9 113e 4df9 9dbd 7856 a6bc
000001b0: fc5e b8bb 6820 ee3d 3fa3 853a ca89 223e
000001c0: 7c63 873d a55c 983d 3c26 1dba bbb6 253e
000001d0: 7977 45ba f18d d73d 1c74 c2bb 450c 1ebc
000001e0: b989 9e3a 245e 663d 7863 db3a 96e3 883d
000001f0: f1df 413b bef8 933d 5df0 423b 7279 ae3d
00000200: 7187 1d3b 6885 153c 5597 4ebb 41a7 d3bd
00000210: 2c97 013d 44ee bbbd 2f87 a1bc 6283 09bd
00000220: 3605 1d3d 320a 633d a7e8 6ebc 9416 46bc
00000230: c083 8cbd b9bd 303a cd96 ab3d a51b b6bd
00000240: f4dc 8fbc 3738 873d 3c28 b6bc 6790 7bbd
00000250: a121 9b3d 7b03 9f3d 2a08 67bd c7f6 1ebd
00000260: 9930 3d3d 9064 f5bd a437 afbc dc92 a03d
00000270: b714 b73d a333 a5bc eef3 17bd c6c5 c0bc
00000280: 154e 88bd 934d a13c aef4 503b 553c e1bc
00000290: 972b db3b 054a 3dbc 3407 f13b 7f3a f13c
000002a0: 1489 9ebb 0e8c 0cbd 8d2d 533d a7f7 973d
000002b0: 3613 5d3c 7b98 ae3d 70b4 8f3d 55a6 8abd
000002c0: c51e 43bd f63b 313c 95fd fa3c f30d ec3b
000002d0: ab1d 5b3d 2de7 24bd 9028 313d 9e0a 0bbd
000002e0: 210e 9c3c 2114 f8bd 5829 523d 0020 563d
000002f0: 18fe 013b 6b41 1abd 9fa4 353c c3e7 8cbd
00000300: b9f3 903c a360 693d ce2c 093d ea0a 88bc
00000310: 7992 573c 259d 993c 46d0 cf3c 21be b4bd
00000320: 150e 41bd 4542 b4bc 9c20 b23a 9c87 b7bd
00000330: dac0 4ebd bf73 ea3b f633 843d b3c7 aabd
00000340: 3515 1abd 3101 233d 8396 cbbc 334d b2bd
00000350: 1114 8a3d 1ff0 a4bc 012c 423d 78c6 00bd
00000360: 60f6 823d 6eec a1bd 03f2 933d 7a75 62bd
00000370: 94c3 38bc dec5 41ba bc8a 873d 07b8 74bd
00000380: ea2c 803c af66 84bd 3c1c 9b3d 474a 8a3d
00000390: 8c4d 803d 623b 63bd f862 22bd 6ba3 883c
000003a0: 5cea e4bc 99cb c9bd ffea a13a d71a ac3c
000003b0: 46aa e2bc 148d 193c 3b5f 913d 3012 e8bb
000003c0: c536 18bc a9cf 613d b4d6 a8bb 9069 21bd
000003d0: c6e9 b03d 4950 293d 5df1 d9bc 2dbe 033c
000003e0: 2f37 f1bc ba75 69bd caa9 8e3c 6736 0f3d
000003f0: 6423 f83c ea3c 293c a95a c03c d69b 193d
0.015785638 0.084996164 -0.005184405 0.110605165 -0.0035688255 0.10239732 0.0012650663 0.11753197
-0.0007746008 0.07993608 -0.0005761009 0.06751653 -0.005397987 -0.060607485 -0.00022091277 0.01946607
0.08694931 -0.038766123 -0.002334464 0.08515803 -0.009286486 -0.014430968 0.010744502 0.05356446
0.0018205193 0.03508836 0.012226145 0.01897888 -0.0011638808 -0.011013434 -0.009450435 0.0075364197
-0.0096429875 0.015921447 -0.0017654143 0.06313595 -0.004970632 0.11164309 -0.0069961357 -0.014784459
-0.00067285926 0.0037990548 0.03303563 -0.008812609 -0.08249127 -0.014758852 0.002251693 0.123920284
0.003999457 0.02523468 -0.06796721 -0.048526127 0.00029956287 0.15490547 0.0018389365 0.14814298
0.0011348105 0.16243918 -0.0032522804 0.114170924 8.629283e-05 0.10197863 -0.0008515052 0.18857408
-0.0014497275 0.13654187 0.0020130407 0.09657948 0.00095818564 0.19044779 0.00032467896 0.064603895
0.00014119547 0.08551309 0.00027687932 0.084122434 -0.005433217 0.074805945 0.0006242992 0.14287141
0.07629359 -0.03408621 0.0024230338 0.13314809 -0.004389486 0.041079108 -0.07865394 0.003313998
-0.00085746206 0.10905013 0.0014741551 0.16147324 -0.0054069716 0.0054996307 0.002304161 0.089834355
0.002152876 0.05529033 0.045933858 -0.0029197172 -4.0532334e-05 0.01031019 -0.022748724 0.062843286
-0.0028259237 0.14224944 -0.07713566 -0.020304903 -0.0056265574 0.11627275 0.0010195746 0.15872875
0.06610772 0.074395455 -0.0005994772 0.16182987 -0.00075327564 0.1052512 -0.0059342515 -0.00964648
0.0012095488 0.056242123 0.0016738018 0.066840336 0.0029582942 0.07225178 0.0029745318 0.085192576
0.0024037028 0.009126045 -0.0031523306 -0.103346355 0.03163831 -0.09176305 -0.01971778 -0.033572562
0.038335048 0.055429645 -0.014581836 -0.012090344 -0.06861067 0.0006742138 0.08378372 -0.088919915
-0.017561413 0.06602519 -0.022235982 -0.06141701 0.075747736 0.07764336 -0.05640427 -0.038809564
0.046188924 -0.119820714 -0.021388836 0.07840511 0.08939498 -0.020166224 -0.037097864 -0.023531806
-0.06655518 0.01969031 0.0031884122 -0.027494589 0.006688546 -0.011553292 0.007355595 0.029446838
-0.0048381183 -0.034313254 0.051557112 0.07420283 0.01349335 0.08525177 0.070168376 -0.067700066
-0.047636766 0.010817518 0.030638495 0.0072038113 0.05349509 -0.04025953 0.043251574 -0.033945672
0.019049706 -0.12113214 0.05130896 0.05227661 0.001983529 -0.037660044 0.011086612 -0.068801425
0.017694341 0.056976926 0.033489995 -0.016606767 0.01315748 0.01875169 0.025367867 -0.08825327
-0.04713257 -0.022004256 0.0013590041 -0.08961412 -0.050476886 0.0071549113 0.06455223 -0.08338871
-0.03761788 0.039796058 -0.024852043 -0.08706131 0.067421086 -0.02013403 0.047405247 -0.031439275
0.063946486 -0.079064235 0.072238944 -0.055287816 -0.011277098 -0.000739185 0.06618258 -0.059745815
0.015646417 -0.06464898 0.07573745 0.067524485 0.06264791 -0.055476554 -0.039645165 0.016679486
-0.027943783 -0.09853286 0.001235336 0.021008892 -0.027669083 0.009372015 0.07098242 -0.0070822462
-0.009290402 0.05512968 -0.0051525477 -0.039407313 0.08638339 0.04133633 -0.026604349 0.008040947
-0.029445259 -0.05699704 0.017414946 0.03496399 0.030290313 0.010329464 0.02348073 0.037502132

feature_extractor.8.bias f4 [128]
00000000: 85af f739 3a88 2cba 67c0 9bba df7e 9f39
00000010: 4158 c839 0adb 8bba 2f98 7cbb 640b 8ab7
00000020: 8927 9db8 8a25 dcba 2963 343a 9ba5 16ba
00000030: 3ac9 5b3a fab0 1db9 6b0e 6f3a d83c 9b3a
00000040: 535a b3b4 e1ed 06bc ef11 23ba 4054 04bc
00000050: d6e1 703a 049a ee39 f32d 383a 0d21 b639
00000060: 99a0 48ba e485 4dba f842 8dbd 899d f23a
00000070: fd6d 8238 569b b1bc 429b 073a 2327 1838
00000080: 813e f039 3a96 34ba 3722 16b9 d9ae a8bb
00000090: ffc2 9339 a413 fcbb cbbe 20bb 65df a4bb
000000a0: 2b01 91b9 7e8e f0bb 0ff2 2d3a 8a81 943a
000000b0: fa9c a339 b0cf 293a 8fa4 c5bd 8be3 3f3a
000000c0: f4a9 ca3a 465e 0eb9 01c4 073a 2bf8 ebbb
000000d0: d310 f9bb 10a8 cc39 8f95 cb39 7751 0abc
000000e0: 6f8d 2939 d5a6 7639 9f6e 8eba cd31 15bc
000000f0: 85bb 66bc f103 85bb 3acd daba a92e 3d3a
00000100: 8b4b 9db9 f75b 69bd 9a09 003a f040 4cbd
00000110: 9733 2ebb 1d15 8439 70f4 d0b9 ba11 5f3a
00000120: e519 91b9 d389 93ba 7d31 33ba 403e feb9
00000130: 1b19 66ba 8d70 e73a 88f9 4cb9 f23f 04bc
00000140: f726 28ba 0d6d 06b9 46c8 adbb 78de cfb8
00000150: 4351 20b9 746f 00ba 3b9e fab9 e8b8 6c39
00000160: a282 1eba ba30 45bc 80ea c3bb 8dc9 11b9
00000170: a347 43bc 7f5b e7b9 a485 e8ba 94dd d839
00000180: 6acf 6f3a 00ba 523a f3de 11ba 928c 18ba
00000190: 5b8f 58bb bcdc 2239 a5bc da39 62d5 35bb
000001a0: 62a3 0d3a 3fa7 163a a9c8 54ba 32f2 603a
000001b0: 975d 5739 c63f 9439 3a2c 8cbc c023 78bb
000001c0: 13e0 8939 098b 42bc 9770 8239 be76 e3b6
000001d0: 860a 70ba 1ec6 04ba dfc6 11ba 5459 aabd
000001e0: 87a8 823a 4c64 0e3b cc8a 123a 587c 7dba
000001f0: 1307 8bbb b294 c33a 180b 823a 21dd 9e3a
0.00047242283 -0.00065815786 -0.0011882902 0.0003042137 0.00038212727 -0.0010670137 -0.0038542857 -1.6456186e-05
-7.4937074e-05 -0.0016795855 0.0006881231 -0.0005746723 0.0008384172 -0.00015038616 0.0009119275 0.0011843694
-3.3407068e-07 -0.008235426 -0.0006220629 -0.008076727 0.00091889256 0.00045509648 0.000702589 0.0003473837
-0.00076533254 -0.00078400807 -0.06897539 0.0018510084 6.21937e-05 -0.021680515 0.00051729765 3.6276073e-05
0.00045822936 -0.00068888406 -0.00014317861 -0.0051477966 0.00028183308 -0.007692771 -0.0024527784 -0.0050315135
-0.00027657425 -0.007341205 0.0006635496 0.001133011 0.0003120674 0.0006477786 -0.09650528 0.00073199783
0.0015462027 -0.00013577295 0.0005179048 -0.007201215 -0.0076008826 0.00039035128 0.00038830607 -0.008442274
0.00016169784 0.00023522538 -0.0010866708 -0.009106112 -0.014082794 -0.0040593077 -0.0016693242 0.0007216731
-0.00030001657 -0.05697247 0.0004884243 -0.049866617 -0.0026581043 0.00025192733 -0.00039854972 0.00085094164
-0.00027675848 -0.0011256285 -0.00068356824 -0.00048493035 -0.0008777545 0.0017657444 -0.00019547914 -0.008071886
-0.00064144976 -0.0001281986 -0.0053034155 -9.911967e-05 -0.00015289061 -0.00048994203 -0.00047801607 0.00022575597
-0.00060466875 -0.012035543 -0.0059788823 -0.00013903361 -0.011918935 -0.00044127923 -0.0017740023 0.0004136382
0.00091480336 0.00080385804 -0.0005564533 -0.00058192865 -0.003304443 0.00015531754 0.0004172075 -0.0027745594
0.0005403069 0.00057469675 -0.0008117059 0.0008581012 0.00020538863 0.00028276275 -0.017110933 -0.0037863106
0.00026297625 -0.011873969 0.00024879418 -6.7789506e-06 -0.00091568416 -0.0005064922 -0.0005560945 -0.08317819
0.0009968438 0.0021727262 0.00055901404 -0.0009669713 -0.0042427867 0.0014921634 0.0009921519 0.0012120345

arrival_regression.0.weight f4 [100, 640]
00000000: a839 c13c 395c aa3c 7aef 943b bd5d 99bc
00000010: ca95 403d e205 de3c fd7b 7a3c 93fc f83c
00000020: 8a39 20bd f4b6 f73c dcdd 883c 641c 013c
00000030: 8dcc babb 29ff 93bc f44b dcbc 5e9f 27bd
00000040: 3b5c abbc f996 e93b 389e cd3b 08c9 033d
00000050: e985 143b 4dc3 d0bc 620e 1c3c 6493 033d
00000060: 0a31 a83c baf1 1c3a dd4e eebc 75d2 9ebc
00000070: bd02 5bbb 06fa 89bc 4a7c 16bd 69f3 923c
00000080: 055d a8bc a343 9e3c 3877 783c ba48 05bb
00000090: 82c3 ab3c afe0 2d3c 250b b43c 8350 07bc
000000a0: ccf5 04bc e3d7 af3c b9c0 adb9 73bb aa3c
000000b0: 3302 a13c f962 ec3c fe59 6cbb 0918 7d39
000000c0: 544a da3b 40a1 cabc bf4d 633c 4f80 3a3c
000000d0: 8caa b33b 8216 deb9 19c9 803c 5d16 68bc
000000e0: d982 e9bc b5c2 99bc 85f4 b1bc 81f0 04bb
000000f0: f69b 053d 5e99 11bd 424a 9c3b a034 333d
00000100: d6e5 d73a 4fc9 523b 3414 8dbc fe82 8e3c
00000110: 0a53 13bc e572 b3bb e28e aebc fd7c 20bd
00000120: dadd 06bc 8cef d83c 0984 ca3b 9178 073d
00000130: b450 4bbc 65da 023d 2e8c 46bc 1d68 e4bc
00000140: a59c 0a3c 5c13 943c 6c44 4bbc 3930 143d
00000150: f63b 943c 9e1d fd3a b896 b03c aeb7 20bd
00000160: e0a8 e73c 26e0 0d3d f3b2 743c 2062 6bbc
00000170: cc66 92bc cf1d 53bc 40ca c53c eee7 29bb
00000180: 90bf 19bd b736 a9bc ee24 b4bc 9ac5 9bbc
00000190: d8be 0bbd 09b0 3b3b ecff 85bb 2ebf 943c
000001a0: 869b 02bc f135 a3bc a67c 933b 5ebd 8dbc
000001b0: 3c7b 1b3c 770f 453c e432 14bd e2ff 84bc
000001c0: 32f0 1cbb 027d 9d3c 4bde 65ba d03a 37bd
000001d0: e648 08bd 798f 29bd 59b4 1d3c 1d4c 143c
000001e0: 9e08 e33c d233 ee3c 723e 44bc 5520 f0ba
000001f0: 11a3 f03c 84ee 4f3b 74c8 e73c 355c fd3b
00000200: 3706 283c 0cc4 b43c fc0a 523c 7791 8e3b
00000210: f615 16bd e482 f13c c227 813b 4944 06bc
00000220: dc32 a13c 4643 83bc 6946 ebbc 2df7 733c
00000230: 40e5 573c 1980 d1bc 1595 ec3c db54 b03c
00000240: 13d1 ecbb a55c fa3c 7da1 873b 34ec 17bd
00000250: 8f94 36bc f399 e0bc 4981 beba 4757 b93a
00000260: 1a74 98ba dc81 a33c 58a4 293c 01f2 d9bb
00000270: a388 0c3d 1be7 e33c 1b3c 173d 9423 853c
00000280: df9c febc f142 be3c 4202 34bc 440e fa3b
00000290: 8852 dabc 4759 06bd dc0a 33bb de45 b6bc
000002a0: d1fd e5bc fd76 d7bc 19f3 5dbb 3c25 e73c
000002b0: d7cb afbc 4afb 6c39 eb58 a03c 0789 12bd
000002c0: 0a4a 1ebd 44bb 083d 5cf2 763b d73d 1a3d
000002d0: ad91 a23c af52 ed3c eede 0bbc 24d2 98bb
000002e0: 74fb debb 1b96 be3b fc41 87ba 7eae ce3c
000002f0: b191 f03b 5d29 803c 5e45 dbbb a67f 90ba
00000300: d4b1 933c a8a0 fe3a fe28 133d 4578 9cbc
00000310: b88f 0e3d 5ce1 4d3c d029 b03c 0101 183d
00000320: d04c 823c 23c2 e5bb 37b8 babc 8722 fc3c
00000330: 8acf b33b 5a8b 62bc dcbc 81bc f793 413c
00000340: b4eb 0a3d 9613 203d 30e6 a6bc c351 a9bc
00000350: 18b4 44bc d944 a0bc ac81 1a3d c430 03bd
00000360: 0c55 1ebc 679f 53bc 015e 1abd f8b4 0ebd
00000370: 0c7a c7bc 5bc7 a43c 8807 c73c b93c 1a3d
00000380: ac94 453d 1fa4 a3bc 9c0a c53c a2dc cebc
00000390: 8a20 943c 21df e83a 686b 613c bcb1 59bc
000003a0: 921e 84ba 75c2 dcbc 8b56 4d3c 71b6 eb3c
000003b0: 377c 293c ba7d 1fbb ea07 52bc bc55 4cbc
000003c0: 403b ea3c 45c3 4a3c 2595 663c 7744 19bc
000003d0: 0178 aebb 2b40 043d 1a54 7a3c 1143 6f3b
000003e0: 0ef6 573b f717 003d 5f5b f03b 94e1 32bc
000003f0: a972 183c 99cb 293d d99f 0e3d 91ae 8dbc
0.023587063 0.020795928 0.0045451494 -0.018721456 0.04701785 0.027102415 0.01528835 0.030393874
-0.039117374 0.030238606 0.016707353 0.007880304 -0.005700654 -0.018066006 -0.026891686 -0.04092347
-0.020918002 0.007128593 0.0062749647 0.03217414 0.0022662824 -0.025483752 0.0095249135 0.032122985
0.020531196 0.0005986948 -0.02909034 -0.019387463 -0.003341838 -0.016842853 -0.036739625 0.017938333
-0.020552168 0.019319361 0.015165143 -0.0020337538 0.020967249 0.010612651 0.02197797 -0.008258942
-0.008115243 0.021465247 -0.0003314072 0.020841336 0.019654369 0.028855788 -0.0036064382 0.00024136914
0.0066616926 -0.024735093 0.013873517 0.01138313 0.0054829773 -0.0004235991 0.01572089 -0.014165488
-0.028504776 -0.018769601 -0.021723041 -0.0020284953 0.03261944 -0.035546653 0.0047695944 0.04375136
0.0016471695 0.0032163446 -0.017221548 0.017396446 -0.008991966 -0.005476343 -0.021308366 -0.039181698
-0.0082316045 0.026481412 0.0061802906 0.033073965 -0.012409378 0.03194656 -0.012118382 -0.027881676
0.0084601985 0.018075638 -0.01240645 0.0361788 0.018094998 0.0019311195 0.021556243 -0.03923767
0.028278768 0.034637593 0.014935243 -0.014366657 -0.017871283 -0.012885525 0.024144292 -0.0025925594
-0.037536204 -0.020655973 -0.021990266 -0.019015122 -0.03411755 0.002863886 -0.004089346 0.018157568
-0.00797165 -0.019923182 0.0045009432 -0.017302211 0.009489831 0.012027613 -0.036181346 -0.016235296
-0.0023946879 0.019224647 -0.0008768781 -0.044733822 -0.033272646 -0.04139659 0.009625518 0.00905135
0.02771407 0.029077444 -0.011977779 -0.0018320183 0.029374631 0.003172786 0.028293826 0.007731939
0.010255388 0.022066139 0.012820002 0.004350837 -0.036642037 0.029481359 0.003941507 -0.008194991
0.019677572 -0.01602329 -0.028720098 0.014890474 0.013177216 -0.025573777 0.028879682 0.021524837
-0.007227072 0.030561754 0.004139124 -0.037090495 -0.011143818 -0.027417159 -0.001453438 0.001414039
-0.0011631281 0.019959383 0.010354124 -0.0066511636 0.034309994 0.02782016 0.036922555 0.016252317
-0.031080661 0.02322528 -0.010986866 0.007631095 -0.026650682 -0.032799985 -0.0027319705 -0.022250112
-0.02807513 -0.026301855 -0.0033866821 0.028215997 -0.021459503 0.00022600326 0.01957365 -0.03577521
-0.038644828 0.033381715 0.0037681079 0.03765663 0.019844854 0.02897009 -0.008537037 -0.0046637226
-0.006804878 0.005816234 -0.0010319347 0.025229689 0.0073415865 0.015644724 -0.006691619 -0.001102437
0.018029131 0.0019426541 0.035927765 -0.019100318 0.03480503 0.012565937 0.021504313 0.037110332
0.015905768 -0.0070116683 -0.022792919 0.030778183 0.005487387 -0.013827169 -0.015837125 0.011815063
0.03391619 0.03908118 -0.020373434 -0.02066887 -0.012005828 -0.01956408 0.03772132 -0.03202893
-0.009663831 -0.012916422 -0.037687305 -0.034840554 -0.024350189 0.020114591 0.024295583 0.037655566
0.048237488 -0.01997572 0.02405291 -0.02525169 0.018081922 0.0017766693 0.013758518 -0.013287004
-0.0010079911 -0.026948193 0.0125328405 0.028773518 0.0103445565 -0.0024336413 -0.01281927 -0.012471613
0.028592706 0.012375657 0.014073645 -0.009354702 -0.005324364 0.032287758 0.01527884 0.003650848
0.0032953057 0.031272855 0.007335111 -0.01091804 0.009304681 0.04145393 0.03482041 -0.017295154

arrival_regression.0.bias f4 [100]
00000000: 5ec1 8dbc 99df c3bc ded7 5abd 4dcf 9e3c
00000010: 0265 4d3d b2c5 343d 3393 263d e7e2 4ebd
00000020: 0e63 a33b 5d5a 433d 226e 133d a6a8 a0bd
00000030: 65e1 603d 696d eb3b aee0 153d b009 2e3d
00000040: 5920 713d 8772 c03c 088d f43c 80d2 193d
00000050: f129 af3c 28d8 273d 4685 363d d019 c03c
00000060: 3bb3 01bd a4b1 d7ba 04c2 213d 3813 4ebd
00000070: b41f 1dbd d4d1 083d 733b 56bc 73fc ed3c
00000080: 3e2d 7d3c bb76 2abd f22f d5bc 369d 2d3c
00000090: 8164 8bbc 7617 65bc fe47 253d 8c92 38bd
000000a0: aac9 953d 219d b73c 0cca bcbd c527 17bd
000000b0: bb36 f93c ded9 96bc 1751 693b 82f3 3b3d
000000c0: 31b8 723d 6914 273c 2dec 2f3d d9ac e53c
000000d0: bc71 203d 2785 893d ac70 a4bc 34db 89bd
000000e0: cc33 973c 3ca8 e13b 098d 5cbc 0bbb 44bb
000000f0: 300e bb3c 8f74 773c fc25 b93b afaa 943d
00000100: 6efc 9abd 3a00 85bc 3412 ff3c 9936 c73c
00000110: d543 713c 0858 fa3c 9f92 333d 11cd 30bd
00000120: 1166 4d3d 7efd c8bc bc69 a4bd 4cf4 2f3d
00000130: 1f2b 883c d626 093d 6edc b43c e722 493d
00000140: b856 fa3d bb3c dd3c af2b 723d 233d 163c
00000150: ca4e 113d b74c 46bd 9a23 753c 878a e3bc
00000160: 1661 ddbc 179f b23c 9998 2b3b d320 5c3a
00000170: 330c db3c 9145 4bbc 8997 1f3d 9c83 43bd
00000180: 9724 8cbb 88e4 063d ea8a b7bd fa15 113d
-0.017304119 -0.02391033 -0.053428523 0.019385958 0.050145157 0.04413385 0.040667724 -0.05050936
0.0049861735 0.0476936 0.035993703 -0.07844667 0.054902453 0.0071846736 0.036591224 0.042489707
0.05886874 0.02349211 0.029852405 0.037554264 0.021382304 0.040977627 0.044560693 0.023449808
-0.031665068 -0.0016456139 0.03949167 -0.050311297 -0.038360313 0.033403233 -0.013075697 0.029051041
0.015452681 -0.041617136 -0.026023839 0.010596564 -0.017015697 -0.013982644 0.04035186 -0.045061633
0.07313855 0.022413792 -0.09218225 -0.03690316 0.030421605 -0.018414434 0.0035601312 0.045886524
0.05925769 0.010197737 0.042949844 0.028036522 0.039170966 0.0671485 -0.020073257 -0.06731263
0.018457316 0.00688651 -0.01346136 -0.0030018713 0.022833914 0.015103473 0.00565028 0.07259118
-0.075676784 -0.01623546 0.03113661 0.024318026 0.014725645 0.030559555 0.043841 -0.043164317
0.050146166 -0.024534937 -0.0802798 0.04295759 0.016622124 0.033484302 0.022077765 0.04910555
0.122235715 0.027006498 0.05912369 0.00916985 0.03547553 -0.048413005 0.014962101 -0.027776016
-0.027023833 0.021804376 0.0026183485 0.0008397225 0.026739215 -0.012406723 0.038962875 -0.047732934
-0.004276823 0.032932788 -0.08962043 0.03542135

arrival_regression.2.weight f4 [1, 100]
00000000: 23ee d1bc d302 56be 0c5f 0ebf 98b8 c4b8
00000010: 61d2 d13e 1282 4e3f 4100 b9be dd78 24bf
00000020: d481 a33a 4cfa 1cbf 2a7f 79bf ce1f 8e3d
00000030: c114 1dbf 3568 ab39 e9c4 0dbf 2e6d 203f
00000040: ba06 273f b479 ad3d 9c2c 1abe 27ef 4f3e
00000050: 6e72 693e 5eb2 353f 3442 e43e 604a 173c
00000060: dc4c 8cbb f689 10bb 62ee c93e 4e04 c7be
00000070: 17da d8be 9ab0 803e b34e 8dbd 98b5 723e
00000080: 74ea c33d 74f0 01bc 5471 24be 301b 943d
00000090: 738a 85be 64da 07bb 6776 77be 8157 ac3e
000000a0: 5723 91bc 778e 33b9 cf78 90be efa5 43bb
000000b0: 9cc8 943e 7b11 68bd 674a d5bd 0657 2c3f
000000c0: 6d2e e13e 5f40 75be 523e dc3e e5ea 823e
000000d0: 9516 07bf 5c46 02bd 38d1 b6bc ee87 a73c
000000e0: 6192 71be 0f5e b43b dfeb f4ba 1303 1e3b
000000f0: 39d0 22bb 7990 373d 7119 e5bb 3bef 8f3f
00000100: 00f6 8cbe 90e1 df3d d57f b43e f7de 563e
00000110: 1cad 1c3d 4cfc 85bb d0ce f03e 7c19 ffb8
00000120: e638 db3e 07e5 08be e8da fd3c 5f3e 35be
00000130: ef3f 6ebc 1d1d be3d bcae acbe 694e 283f
00000140: 9dab e3bd b949 66bb d93f 923e 63db 6a3a
00000150: 3078 81bb 474e 103c cc7f 8bbe 6d4d 9abe
00000160: 6fb9 a83e be0f 1bbf 21b8 3cbb d26c bcbb
00000170: e111 0dbd 8995 51ba 6924 59be 6a70 c7be
00000180: 4898 aaba 5763 943e 0bb1 56bd 8d74 5f3e
-0.025626248 -0.20899515 -0.5561378 -9.3803916e-05 0.4098082 0.8066722 -0.36133006 -0.6424692
0.0012474605 -0.6131942 -0.9745966 0.0693966 -0.6135979 0.00032693302 -0.55378586 0.62666595
0.6524464 0.08470479 -0.1505608 0.20306073 0.22797558 0.7097529 0.4458176 0.009234041
-0.0042816233 -0.0022054887 0.39439684 -0.38870472 -0.4235389 0.25134736 -0.06899776 0.23702085
0.09566203 -0.007930864 -0.16058856 0.07231748 -0.2608219 -0.0020729536 -0.2416626 0.3366051
-0.017717047 -0.00017123843 -0.2821717 -0.0029853543 0.29059303 -0.056657296 -0.10414582 0.6732029
0.43980733 -0.23950337 0.43016297 0.25569835 -0.5276883 -0.03180538 -0.02231656 0.020450559
-0.23590995 0.0055043767 -0.0018686018 0.002411072 -0.0024843349 0.044815514 -0.0069915582 1.1244882
-0.27531433 0.109316945 0.35253778 0.20983492 0.038251027 -0.004088914 0.47032785 -0.000121640944
0.42816848 -0.13368617 0.030988172 -0.17699574 -0.01454161 0.09282897 -0.33727062 0.65744644
-0.11116717 -0.0035139157 0.28564337 0.0008959083 -0.003951095 0.008807725 -0.2724594 -0.30137196
0.32953975 -0.60570896 -0.0028796273 -0.005750277 -0.03444088 -0.0007995 -0.21205296 -0.38952953
-0.0013015354 0.2898204 -0.052414935 0.21821804

height_regression.0.weight f4 [100, 640]
00000000: 6878 91bc 8f05 cb3c dcbc 553c 8b57 023d
00000010: 843d bc3a f542 243d 866a c9bc 30b3 12bd
00000020: b6f2 b2bc ddef d73c 75aa aebc f754 183d
00000030: 3484 29bc c60a 283d 00d8 c4bc e096 c73c
00000040: 4f25 763a 4f91 03bc 5f61 493c 058e aa3c
00000050: e43a 7dbc cdde 3b3c f65e fdbc da59 cb3a
00000060: c926 16bc fd4f 143d f53e b93c 4e28 c23b
00000070: eec9 46bb c6ca 9a3c 606f ac3c 422b 54bc
00000080: 7acc 48bc 4f76 9a3c 126e 593c 0edb d83c
00000090: 230c a23c 350c bc3c c40f 333d fc0b b0bb
000000a0: f2b0 98ba 2279 243d 6488 dd3c 92c7 2d3d
000000b0: 1e2a dbbb 913e 0c3d d2de ab3c e61d 8d3c
000000c0: 86a8 2e3c 976c 06bd 76ef 93bc 03f7 bfbb
000000d0: afe3 d53b 3d49 8fbb 1d54 0abc 4c5d 113d
000000e0: c43e c33c e272 f2bb c98f 403c 15be a4bc
000000f0: 35b7 2cbb d168 e9bc f451 e33b 7652 c8bc
00000100: 026f b6ba 5cd1 ba3a 8c2d 2f3d 605b 003d
00000110: 1ecd 243d 403c f23c 3fd4 ce3c 56c1 c13a
00000120: 165a 81bc 7bda 43bc fd6f b43c 6a9e 003c
00000130: 6518 eabc bb0e ec3c c559 0d3d 7832 4f3c
00000140: cf9d e53c 7828 013d 7693 aabc 1bee 08bd
00000150: eab6 363d 1bfd 053d bbf9 093b 72bd dc3c
00000160: 0d8a 0dbd 910e ec3c 6167 adbc b7b1 043d
00000170: feff 073c bb18 0e3c 4fea c0ba 4a42 ddba
00000180: fa73 bf3c 416c 31bc a9c8 43bc ac1f 273d
00000190: 70b6 153d 2ca6 0e3b 19d4 273c fdd6 873a
000001a0: fc29 acbb 86ca 30bc 2d57 423c 0530 943c
000001b0: bc95 f33c b0d3 2ebc b225 d8ba 8c31 d33c
000001c0: dfbb e53c bfc5 013d 38ea 023b d316 8dbc
000001d0: fc68 77ba 8610 a13c 1521 e2ba 0f5f 163d
000001e0: eb1f a63c 3488 f4bc 53ea fa3c 8ee3 34bc
000001f0: 547e c4bb 507e e5b8 7c3d 1f3d 6408 b3bb
00000200: 9fd4 cd3c b3b2 353d c021 cfbc 55c1 203d
00000210: d7d0 cc3c 9bbb 57bc a92a 1bbd a542 c23c
00000220: 6c98 7cbc aa92 053d 138f f1ba 6d35 943c
00000230: 33a9 8abc 95db cb3b d5e8 093d 50a9 143c
00000240: 6dd7 093d fb1a febc c119 10bd 11c8 933c
00000250: f298 eb3b afb2 b83c 62e3 d93c baa6 c1bc
00000260: 0f2d f3bc 5066 063d fa11 97bc 5562 4ebc
00000270: 672c 30bc 2626 f9bc 1ec5 97bc 0085 45bc
00000280: 05ee debc 70d0 ff3b 58f7 e83c 9e0c 87bc
00000290: 0c40 e63c 3d63 b1bc f3d2 eebc 6b54 e8bc
000002a0: db45 7e3c e9b6 8fbb 9a77 d83c 9221 03bb
000002b0: cf83 82bc 5401 f6bb b8cf 973c dada d0bc
000002c0: 3194 b83c 5204 31bc 9f04 4a3c 46a5 3e3d
000002d0: 310a 4fbb 9913 22bd 41cd d9bc 05a2 d7bc
000002e0: 714a 243b 7197 0e3d c8ce cd3b 2ffc 0e3d
000002f0: b96c 13bd 8341 073d 4138 ce3b 0414 a3bc
00000300: 7e86 933c 64cf 153d 5e0f ccbc 9ce7 053c
00000310: c62d eb3c 57db 143c b408 14bd e060 c73c
00000320: bc63 82bc 618d ec3c af04 f43c c5a4 d7bb
00000330: 3d13 053d ebba fd3c 0679 0e3d 3d3a c8bc
00000340: 2e3c 07bd 8f47 d3bc 01eb 1c3c f17f 06bb
00000350: 02d0 d6bc bc42 b2bc 8226 053c 3420 d73c
00000360: e251 db3c ec11 13bd 9a09 a8bb 5795 0dbd
00000370: 802d 4e3c 0433 4d3c 4027 2d3c f338 ec3c
00000380: d609 013d 695a 8d3c c626 90bc 7350 9a3c
00000390: 686f a13c ed50 b33c 6b63 963a 93c0 783c
000003a0: 460a 57bc f044 d7bc 93da e3bb d129 7cbc
000003b0: 45c3 d7ba 609c 2d3c 9622 193d fbb2 3fba
000003c0: 343d 193d 19cd 333b e1a6 043d cb51 c73c
000003d0: f3d4 1c3d 388c 00bd 9e99 c4bc 5f07 823c
000003e0: a997 e3bc fa9e d13c c33e bf3b d5a8 0c3d
000003f0: 0dca adbb 9adf abbc 9b18 ebbb 8e7c 0abd
-0.01775761 0.024782924 0.013045516 0.03182177 0.0014361595 0.040102918 -0.024586927 -0.035815418
-0.02184425 0.026359493 -0.021321515 0.037190404 -0.010346461 0.0410259 -0.024028778 0.024363935
0.00093897147 -0.00803025 0.0122912815 0.020819673 -0.015455935 0.011466694 -0.03092907 0.0015514449
-0.009164521 0.036209095 0.022613028 0.005925215 -0.0030332762 0.018895518 0.021049201 -0.012949767
-0.012255782 0.018855242 0.013270872 0.02647164 0.019781178 0.02295504 0.043716207 -0.0053725224
-0.0011649413 0.040154584 0.027042575 0.042426653 -0.0066883704 0.034239355 0.020980272 0.01722617
0.010660296 -0.032818403 -0.01805852 -0.0058583035 0.006527386 -0.0043727444 -0.008442906 0.035489365
0.02383364 -0.007398949 0.011753031 -0.02011017 -0.0026354317 -0.028492363 0.00693726 -0.024453383
-0.0013918581 0.0014253068 0.042768046 0.031337142 0.040234677 0.029569745 0.025247691 0.001478235
-0.015790027 -0.011953945 0.022026056 0.007850269 -0.028576085 0.028815618 0.03450944 0.01264631
0.02802935 0.031532735 -0.020822268 -0.0334302 0.044608034 0.032712083 0.0021053392 0.026945803
-0.034555484 0.02881554 -0.021167459 0.032396045 0.008300779 0.008672888 -0.0014718267 -0.0016880718
0.023370732 -0.010829032 -0.011949697 0.04080169 0.03655094 0.0021766527 0.010243439 0.0010363754
-0.0052540284 -0.010790473 0.011861605 0.018089304 0.029734485 -0.010670587 -0.0016490726 0.025780462
0.028043685 0.031682726 0.001997603 -0.017222797 -0.0009437946 0.0196612 -0.0017252291 0.03671175
0.020278892 -0.029850103 0.030629313 -0.011040581 -0.005996505 -0.000109430985 0.038876995 -0.0054636467
0.0251258 0.044359874 -0.025284648 0.039246876 0.025001926 -0.013167287 -0.03788248 0.02371342
-0.0154172 0.032610573 -0.001842948 0.018091882 -0.016926384 0.0062212446 0.03366931 0.00907357
0.03365271 -0.031018725 -0.03518081 0.018039735 0.0071898634 0.02254614 0.026597682 -0.023639072
-0.029684572 0.032812417 -0.01844119 -0.012596686 -0.010752774 -0.030413698 -0.01852661 -0.012055635
-0.027213106 0.00780683 0.028438255 -0.016485509 0.028106712 -0.021653766 -0.029153323 -0.028360566
0.0155195845 -0.0043858183 0.026424218 -0.0020009023 -0.015931992 -0.0075074825 0.018531665 -0.025494982
0.0225316 -0.010804253 0.012330203 0.046544336 -0.0031591768 -0.03956947 -0.02658713 -0.026322374
0.0025068785 0.034812395 0.0062807538 0.03490847 -0.035992358 0.03302146 0.006293327 -0.019907005
0.018008467 0.036574736 -0.024909671 0.008172896 0.02870835 0.009085498 -0.036141112 0.024338186
-0.015916698 0.028876008 0.02978739 -0.0065809214 0.03248905 0.030972918 0.034783386 -0.024441833
-0.033016376 -0.025790958 0.009577514 -0.0020523036 -0.026222233 -0.021760337 0.008126857 0.026260473
0.026772443 -0.035905764 -0.0051280977 -0.03456625 0.01258409 0.01252437 0.01056844 0.02883575
0.03150352 0.017255025 -0.017596614 0.01883719 0.019706443 0.021889174 0.0011473721 0.015182632
-0.013125008 -0.02627799 -0.0069535463 -0.015390829 -0.0016461393 0.010596365 0.0373865 -0.0007312742
0.037411883 0.002743548 0.03238571 0.024330994 0.03828902 -0.031383723 -0.023999032 0.015872655
-0.027782278 0.025588501 0.005836339 0.0343407 -0.0053036273 -0.020980645 -0.007174564 -0.03381019

height_regression.0.bias f4 [100]
00000000: 96e5 6fbc 0eac ad3c 2d2a b1bd 64e1 95bc
00000010: 64db 5ebd 2b12 5dbd ccb7 373c 2528 5f3d
00000020: b8b4 c63b a841 983a b298 f33c ab81 64bc
00000030: 3565 ef3b a851 883b ad8c b5bb 8275 29bd
00000040: 281e 30bd 8991 ee3c dfb1 fb3c b965 b83c
00000050: cc16 d53c 9bb4 063d 23bc 42bd 71db a83c
00000060: da06 2ebd df6a c53c d2ee f535 9f7a efbb
00000070: dd6a c13c acdf 243d a896 33bd eec3 1a3d
00000080: 338b 763d 8b9a 293b 3c0e 5bbd ab43 0dbd
00000090: c4cf 88ba 36a4 c8bc b4f8 5ebc 35a5 dc3c
000000a0: f17e 93bc 169f 973d faa3 c0bc 1b00 73bc
000000b0: 6a8c 16bd a322 633d 6cbd 85bc 6797 afbc
000000c0: 2ee8 80bc e45d 24bd 97cc ad3d 3e4a ac3d
000000d0: b50e 22bd 16c0 063d ed52 533d a344 69bd
000000e0: d4eb 13bd 475b 663d 7afb 5f3c 3297 a33d
000000f0: f48b d9bc ca43 883c 0987 863c 96bd 69bc
00000100: a202 1bbd 92c1 803d a52f 393d 4049 1f3b
00000110: 7d6b 823d 07d8 653b eb94 33bd c9ab dabc
00000120: c97c 0b3b 4cab 3bbd 67b6 ac3b b55b 643b
00000130: cb84 49bd a4e1 ca3b a4f8 3f3d 6e47 9e3b
00000140: f399 8dbd da4d 89bd a821 d336 015d 9ebb
00000150: a0a3 cd3c 0af5 89bc cf35 043c 5259 89bd
00000160: 5e00 7dbb 9583 963d ab67 3fba 26b1 44bd
00000170: 859e 23bd bbbe fc3c 492c 0bbc ddbd fd3c
00000180: 403b 13bd fef5 04bc 880b efbc da8e 143d
-0.01464214 0.021200206 -0.086506225 -0.018295951 -0.054408446 -0.053972404 0.011213254 0.054481644
0.006064024 0.0011616247 0.029735897 -0.013946931 0.007305766 0.004160125 -0.0055404515 -0.04137183
-0.04299751 0.029122131 0.030724464 0.022509443 0.026011847 0.032887083 -0.047542702 0.02061245
-0.042487003 0.024098812 1.8323428e-06 -0.0073083187 0.023610527 0.040252373 -0.04384485 0.03778451
0.060191344 0.0025879468 -0.05348037 -0.03448836 -0.0010437896 -0.024492364 -0.0136091 0.026934246
-0.018004866 0.0740339 -0.02351569 -0.014831568 -0.036755003 0.055452954 -0.016325675 -0.021434499
-0.015735712 -0.040128604 0.08486288 0.08412598 -0.039564807 0.03289803 0.051592756 -0.056950223
-0.036113575 0.056239393 0.0136707965 0.079878226 -0.026555993 0.016633887 0.016421812 -0.014266392
-0.037844308 0.062869206 0.045211453 0.0024305135 0.06368158 0.003507139 -0.04384319 -0.026693242
0.0021284095 -0.04581766 0.0052707675 0.00348447 -0.049198907 0.0061914492 0.04686798 0.0048302924
-0.06914129 -0.06704302 6.292208e-06 -0.0048328643 0.025102437 -0.016840477 0.00806947 -0.067064896
-0.0038604955 0.07349316 -0.00073015195 -0.048020504 -0.039946098 0.030852666 -0.008494445 0.030974323
-0.035945177 -0.00811529 -0.029180303 0.036269046
